Size: (32, 32)
Loading training set...
Loading testing set...
Resizing images...
(1578, 32, 32, 3)
Model: "sequential_28"
_________________________________________________________________
Layer (type)                 Output Shape              Param #   
=================================================================
conv2d_84 (Conv2D)           (None, 32, 32, 6)         456       
_________________________________________________________________
average_pooling2d_56 (Averag (None, 31, 31, 6)         0         
_________________________________________________________________
conv2d_85 (Conv2D)           (None, 27, 27, 16)        2416      
_________________________________________________________________
average_pooling2d_57 (Averag (None, 13, 13, 16)        0         
_________________________________________________________________
conv2d_86 (Conv2D)           (None, 9, 9, 120)         48120     
_________________________________________________________________
flatten_28 (Flatten)         (None, 9720)              0         
_________________________________________________________________
dense_56 (Dense)             (None, 84)                816564    
_________________________________________________________________
dense_57 (Dense)             (None, 12)                1020      
=================================================================
Total params: 868,576
Trainable params: 868,576
Non-trainable params: 0
_________________________________________________________________
Epoch 1/64
13/13 [==============================] - 0s 20ms/step - loss: 2.4811 - accuracy: 0.0982 - val_loss: 2.4603 - val_accuracy: 0.0973
Epoch 2/64
13/13 [==============================] - 0s 11ms/step - loss: 2.4358 - accuracy: 0.1439 - val_loss: 2.4095 - val_accuracy: 0.1322
…
