Size: (64, 64)
Loading training set...
Loading testing set...
Resizing images...
(1578, 64, 64, 3)
Model: "sequential_3"
_________________________________________________________________
Layer (type)                 Output Shape              Param #   
=================================================================
conv2d_7 (Conv2D)            (None, 62, 62, 32)        896       
_________________________________________________________________
conv2d_8 (Conv2D)            (None, 60, 60, 64)        18496     
_________________________________________________________________
max_pooling2d_2 (MaxPooling2 (None, 30, 30, 64)        0         
_________________________________________________________________
dropout_4 (Dropout)          (None, 30, 30, 64)        0         
_________________________________________________________________
flatten_3 (Flatten)          (None, 57600)             0         
_________________________________________________________________
dense_6 (Dense)              (None, 128)               7372928   
_________________________________________________________________
dropout_5 (Dropout)          (None, 128)               0         
_________________________________________________________________
dense_7 (Dense)              (None, 12)                1548      
=================================================================
Total params: 7,393,868
Trainable params: 7,393,868
Non-trainable params: 0
_________________________________________________________________
Epoch 1/64
13/13 [==============================] - 0s 33ms/step - loss: 2.5112 - accuracy: 0.0862 - val_loss: 2.4596 - val_accuracy: 0.1646
Epoch 2/64
13/13 [==============================] - 0s 22ms/step - loss: 2.4596 - accuracy: 0.1128 - val_loss: 2.4326 - val_accuracy: 0.0973
…
