Size: (64, 64)
Loading training set...
Loading testing set...
Resizing images...
(1578, 64, 64, 3)
Model: "sequential_2"
_________________________________________________________________
Layer (type)                 Output Shape              Param #   
=================================================================
conv2d_5 (Conv2D)            (None, 62, 62, 32)        896       
_________________________________________________________________
conv2d_6 (Conv2D)            (None, 60, 60, 64)        18496     
_________________________________________________________________
max_pooling2d_1 (MaxPooling2 (None, 30, 30, 64)        0         
_________________________________________________________________
dropout_2 (Dropout)          (None, 30, 30, 64)        0         
_________________________________________________________________
flatten_2 (Flatten)          (None, 57600)             0         
_________________________________________________________________
dense_4 (Dense)              (None, 128)               7372928   
_________________________________________________________________
dropout_3 (Dropout)          (None, 128)               0         
_________________________________________________________________
dense_5 (Dense)              (None, 12)                1548      
=================================================================
Total params: 7,393,868
Trainable params: 7,393,868
Non-trainable params: 0
_________________________________________________________________
Epoch 1/32
13/13 [==============================] - 0s 33ms/step - loss: 2.5134 - accuracy: 0.0887 - val_loss: 2.4594 - val_accuracy: 0.1322
Epoch 2/32
13/13 [==============================] - 0s 22ms/step - loss: 2.4701 - accuracy: 0.1084 - val_loss: 2.4456 - val_accuracy: 0.1322
…
