Size: (64, 64)
Loading training set...
Loading testing set...
Resizing images...
(1578, 64, 64, 3)
Model: "sequential_4"
_________________________________________________________________
Layer (type)                 Output Shape              Param #   
=================================================================
conv2d_9 (Conv2D)            (None, 62, 62, 32)        896       
_________________________________________________________________
conv2d_10 (Conv2D)           (None, 60, 60, 64)        18496     
_________________________________________________________________
max_pooling2d_3 (MaxPooling2 (None, 30, 30, 64)        0         
_________________________________________________________________
dropout_6 (Dropout)          (None, 30, 30, 64)        0         
_________________________________________________________________
flatten_4 (Flatten)          (None, 57600)             0         
_________________________________________________________________
dense_8 (Dense)              (None, 128)               7372928   
_________________________________________________________________
dropout_7 (Dropout)          (None, 128)               0         
_________________________________________________________________
dense_9 (Dense)              (None, 12)                1548      
=================================================================
Total params: 7,393,868
Trainable params: 7,393,868
Non-trainable params: 0
_________________________________________________________________
Epoch 1/128
13/13 [==============================] - 0s 33ms/step - loss: 2.4872 - accuracy: 0.0887 - val_loss: 2.4410 - val_accuracy: 0.1546
Epoch 2/128
13/13 [==============================] - 0s 20ms/step - loss: 2.4177 - accuracy: 0.1705 - val_loss: 2.3746 - val_accuracy: 0.2020
…
