Size: (32, 32)
Loading training set...
Loading testing set...
Resizing images...
(27558, 32, 32, 3)
Model: "sequential_4"
_________________________________________________________________
Layer (type)                 Output Shape              Param #   
=================================================================
conv2d_11 (Conv2D)           (None, 32, 32, 6)         456       
_________________________________________________________________
average_pooling2d_6 (Average (None, 31, 31, 6)         0         
_________________________________________________________________
conv2d_12 (Conv2D)           (None, 27, 27, 16)        2416      
_________________________________________________________________
average_pooling2d_7 (Average (None, 13, 13, 16)        0         
_________________________________________________________________
conv2d_13 (Conv2D)           (None, 9, 9, 120)         48120     
_________________________________________________________________
flatten_4 (Flatten)          (None, 9720)              0         
_________________________________________________________________
dense_8 (Dense)              (None, 84)                816564    
_________________________________________________________________
dense_9 (Dense)              (None, 12)                1020      
=================================================================
Total params: 868,576
Trainable params: 868,576
Non-trainable params: 0
_________________________________________________________________
Epoch 1/128
216/216 [==============================] - 2s 8ms/step - loss: 2.3697 - accuracy: 0.1774 - val_loss: 2.0813 - val_accuracy: 0.3167
Epoch 2/128
216/216 [==============================] - 1s 7ms/step - loss: 2.2004 - accuracy: 0.2831 - val_loss: 1.7283 - val_accuracy: 0.4788
…
