Size: (64, 64)
Loading training set...
Loading testing set...
Resizing images...
(27558, 64, 64, 3)
Model: "sequential_5"
_________________________________________________________________
Layer (type)                 Output Shape              Param #   
=================================================================
conv2d_14 (Conv2D)           (None, 62, 62, 32)        896       
_________________________________________________________________
conv2d_15 (Conv2D)           (None, 60, 60, 64)        18496     
_________________________________________________________________
max_pooling2d_1 (MaxPooling2 (None, 30, 30, 64)        0         
_________________________________________________________________
dropout_2 (Dropout)          (None, 30, 30, 64)        0         
_________________________________________________________________
flatten_5 (Flatten)          (None, 57600)             0         
_________________________________________________________________
dense_10 (Dense)             (None, 128)               7372928   
_________________________________________________________________
dropout_3 (Dropout)          (None, 128)               0         
_________________________________________________________________
dense_11 (Dense)             (None, 12)                1548      
=================================================================
Total params: 7,393,868
Trainable params: 7,393,868
Non-trainable params: 0
_________________________________________________________________
Epoch 1/32
216/216 [==============================] - 4s 20ms/step - loss: 2.4126 - accuracy: 0.1514 - val_loss: 2.1534 - val_accuracy: 0.1970
Epoch 2/32
216/216 [==============================] - 4s 19ms/step - loss: 2.1991 - accuracy: 0.2557 - val_loss: 1.6008 - val_accuracy: 0.5362
…
