Size: (64, 64)
Loading training set...
Loading testing set...
Resizing images...
(27558, 64, 64, 3)
Model: "sequential_6"
_________________________________________________________________
Layer (type)                 Output Shape              Param #   
=================================================================
conv2d_16 (Conv2D)           (None, 62, 62, 32)        896       
_________________________________________________________________
conv2d_17 (Conv2D)           (None, 60, 60, 64)        18496     
_________________________________________________________________
max_pooling2d_2 (MaxPooling2 (None, 30, 30, 64)        0         
_________________________________________________________________
dropout_4 (Dropout)          (None, 30, 30, 64)        0         
_________________________________________________________________
flatten_6 (Flatten)          (None, 57600)             0         
_________________________________________________________________
dense_12 (Dense)             (None, 128)               7372928   
_________________________________________________________________
dropout_5 (Dropout)          (None, 128)               0         
_________________________________________________________________
dense_13 (Dense)             (None, 12)                1548      
=================================================================
Total params: 7,393,868
Trainable params: 7,393,868
Non-trainable params: 0
_________________________________________________________________
Epoch 1/64
216/216 [==============================] - 4s 20ms/step - loss: 2.4345 - accuracy: 0.1404 - val_loss: 2.2139 - val_accuracy: 0.3367
Epoch 2/64
216/216 [==============================] - 4s 19ms/step - loss: 2.2299 - accuracy: 0.2397 - val_loss: 1.7164 - val_accuracy: 0.4813
…
