Size: (32, 32)
Loading training set...
Loading testing set...
Resizing images...
(1578, 32, 32, 3)
Model: "sequential_29"
_________________________________________________________________
Layer (type)                 Output Shape              Param #   
=================================================================
conv2d_87 (Conv2D)           (None, 32, 32, 6)         456       
_________________________________________________________________
average_pooling2d_58 (Averag (None, 31, 31, 6)         0         
_________________________________________________________________
conv2d_88 (Conv2D)           (None, 27, 27, 16)        2416      
_________________________________________________________________
average_pooling2d_59 (Averag (None, 13, 13, 16)        0         
_________________________________________________________________
conv2d_89 (Conv2D)           (None, 9, 9, 120)         48120     
_________________________________________________________________
flatten_29 (Flatten)         (None, 9720)              0         
_________________________________________________________________
dense_58 (Dense)             (None, 84)                816564    
_________________________________________________________________
dense_59 (Dense)             (None, 12)                1020      
=================================================================
Total params: 868,576
Trainable params: 868,576
Non-trainable params: 0
_________________________________________________________________
Epoch 1/128
13/13 [==============================] - 0s 21ms/step - loss: 2.4822 - accuracy: 0.1039 - val_loss: 2.4569 - val_accuracy: 0.1496
Epoch 2/128
13/13 [==============================] - 0s 11ms/step - loss: 2.4497 - accuracy: 0.1584 - val_loss: 2.4257 - val_accuracy: 0.1995
…
