Size: (32, 32)
Loading training set...
Loading testing set...
Resizing images...
(27558, 32, 32, 3)
Model: "sequential_2"
_________________________________________________________________
Layer (type)                 Output Shape              Param #   
=================================================================
conv2d_5 (Conv2D)            (None, 32, 32, 6)         456       
_________________________________________________________________
average_pooling2d_2 (Average (None, 31, 31, 6)         0         
_________________________________________________________________
conv2d_6 (Conv2D)            (None, 27, 27, 16)        2416      
_________________________________________________________________
average_pooling2d_3 (Average (None, 13, 13, 16)        0         
_________________________________________________________________
conv2d_7 (Conv2D)            (None, 9, 9, 120)         48120     
_________________________________________________________________
flatten_2 (Flatten)          (None, 9720)              0         
_________________________________________________________________
dense_4 (Dense)              (None, 84)                816564    
_________________________________________________________________
dense_5 (Dense)              (None, 12)                1020      
=================================================================
Total params: 868,576
Trainable params: 868,576
Non-trainable params: 0
_________________________________________________________________
Epoch 1/32
216/216 [==============================] - 2s 7ms/step - loss: 2.3683 - accuracy: 0.1801 - val_loss: 2.0293 - val_accuracy: 0.3367
Epoch 2/32
216/216 [==============================] - 1s 6ms/step - loss: 2.1780 - accuracy: 0.2988 - val_loss: 1.6650 - val_accuracy: 0.5062
…
