Size: (32, 32)
Loading training set...
Loading testing set...
Resizing images...
(1578, 32, 32, 3)
Model: "sequential_27"
_________________________________________________________________
Layer (type)                 Output Shape              Param #   
=================================================================
conv2d_81 (Conv2D)           (None, 32, 32, 6)         456       
_________________________________________________________________
average_pooling2d_54 (Averag (None, 31, 31, 6)         0         
_________________________________________________________________
conv2d_82 (Conv2D)           (None, 27, 27, 16)        2416      
_________________________________________________________________
average_pooling2d_55 (Averag (None, 13, 13, 16)        0         
_________________________________________________________________
conv2d_83 (Conv2D)           (None, 9, 9, 120)         48120     
_________________________________________________________________
flatten_27 (Flatten)         (None, 9720)              0         
_________________________________________________________________
dense_54 (Dense)             (None, 84)                816564    
_________________________________________________________________
dense_55 (Dense)             (None, 12)                1020      
=================================================================
Total params: 868,576
Trainable params: 868,576
Non-trainable params: 0
_________________________________________________________________
Epoch 1/32
13/13 [==============================] - 0s 20ms/step - loss: 2.4595 - accuracy: 0.1229 - val_loss: 2.4119 - val_accuracy: 0.1845
Epoch 2/32
13/13 [==============================] - 0s 12ms/step - loss: 2.3872 - accuracy: 0.2123 - val_loss: 2.3395 - val_accuracy: 0.2020
…
