Size: (32, 32)
Loading training set...
Loading testing set...
Resizing images...
(27558, 32, 32, 3)
Model: "sequential_3"
_________________________________________________________________
Layer (type)                 Output Shape              Param #   
=================================================================
conv2d_8 (Conv2D)            (None, 32, 32, 6)         456       
_________________________________________________________________
average_pooling2d_4 (Average (None, 31, 31, 6)         0         
_________________________________________________________________
conv2d_9 (Conv2D)            (None, 27, 27, 16)        2416      
_________________________________________________________________
average_pooling2d_5 (Average (None, 13, 13, 16)        0         
_________________________________________________________________
conv2d_10 (Conv2D)           (None, 9, 9, 120)         48120     
_________________________________________________________________
flatten_3 (Flatten)          (None, 9720)              0         
_________________________________________________________________
dense_6 (Dense)              (None, 84)                816564    
_________________________________________________________________
dense_7 (Dense)              (None, 12)                1020      
=================================================================
Total params: 868,576
Trainable params: 868,576
Non-trainable params: 0
_________________________________________________________________
Epoch 1/64
216/216 [==============================] - 2s 7ms/step - loss: 2.3800 - accuracy: 0.1680 - val_loss: 2.1422 - val_accuracy: 0.2319
Epoch 2/64
216/216 [==============================] - 1s 6ms/step - loss: 2.2114 - accuracy: 0.2769 - val_loss: 1.7725 - val_accuracy: 0.4763
…
