Size: (64, 64)
Loading training set...
Loading testing set...
Resizing images...
(27558, 64, 64, 3)
Model: "sequential"
_________________________________________________________________
Layer (type)                 Output Shape              Param #   
=================================================================
conv2d (Conv2D)              (None, 62, 62, 32)        896       
_________________________________________________________________
conv2d_1 (Conv2D)            (None, 60, 60, 64)        18496     
_________________________________________________________________
max_pooling2d (MaxPooling2D) (None, 30, 30, 64)        0         
_________________________________________________________________
dropout (Dropout)            (None, 30, 30, 64)        0         
_________________________________________________________________
flatten (Flatten)            (None, 57600)             0         
_________________________________________________________________
dense (Dense)                (None, 128)               7372928   
_________________________________________________________________
dropout_1 (Dropout)          (None, 128)               0         
_________________________________________________________________
dense_1 (Dense)              (None, 12)                1548      
=================================================================
Total params: 7,393,868
Trainable params: 7,393,868
Non-trainable params: 0
_________________________________________________________________
Epoch 1/128
216/216 [==============================] - 4s 21ms/step - loss: 2.4204 - accuracy: 0.1451 - val_loss: 2.1958 - val_accuracy: 0.3017
Epoch 2/128
216/216 [==============================] - 4s 20ms/step - loss: 2.2227 - accuracy: 0.2482 - val_loss: 1.7182 - val_accuracy: 0.5137
…
